…
WARNING:tensorflow:From /usr/local/lib/python3.6/dist-packages/tensorflow/python/ops/array_ops.py:1354: add_dispatch_support.&lt;locals&gt;.wrapper (from tensorflow.python.ops.array_ops) is deprecated and will be removed in a future version.
Instructions for updating:
Use tf.where in 2.0, which has the same broadcast rule as np.where
Model: "model_1"
__________________________________________________________________________________________________
Layer (type)                    Output Shape         Param #     Connected to                     
==================================================================================================
the_input (InputLayer)          (None, 128, 64, 1)   0                                            
__________________________________________________________________________________________________
conv1 (Conv2D)                  (None, 128, 64, 64)  640         the_input[0][0]                  
__________________________________________________________________________________________________
batch_normalization_1 (BatchNor (None, 128, 64, 64)  256         conv1[0][0]                      
__________________________________________________________________________________________________
activation_1 (Activation)       (None, 128, 64, 64)  0           batch_normalization_1[0][0]      
__________________________________________________________________________________________________
max1 (MaxPooling2D)             (None, 64, 32, 64)   0           activation_1[0][0]               
__________________________________________________________________________________________________
conv2 (Conv2D)                  (None, 64, 32, 128)  73856       max1[0][0]                       
__________________________________________________________________________________________________
batch_normalization_2 (BatchNor (None, 64, 32, 128)  512         conv2[0][0]                      
__________________________________________________________________________________________________
activation_2 (Activation)       (None, 64, 32, 128)  0           batch_normalization_2[0][0]      
__________________________________________________________________________________________________
max2 (MaxPooling2D)             (None, 32, 16, 128)  0           activation_2[0][0]               
__________________________________________________________________________________________________
conv3 (Conv2D)                  (None, 32, 16, 256)  295168      max2[0][0]                       
__________________________________________________________________________________________________
batch_normalization_3 (BatchNor (None, 32, 16, 256)  1024        conv3[0][0]                      
__________________________________________________________________________________________________
activation_3 (Activation)       (None, 32, 16, 256)  0           batch_normalization_3[0][0]      
__________________________________________________________________________________________________
conv4 (Conv2D)                  (None, 32, 16, 256)  590080      activation_3[0][0]               
__________________________________________________________________________________________________
batch_normalization_4 (BatchNor (None, 32, 16, 256)  1024        conv4[0][0]                      
__________________________________________________________________________________________________
activation_4 (Activation)       (None, 32, 16, 256)  0           batch_normalization_4[0][0]      
__________________________________________________________________________________________________
max3 (MaxPooling2D)             (None, 32, 8, 256)   0           activation_4[0][0]               
__________________________________________________________________________________________________
conv5 (Conv2D)                  (None, 32, 8, 512)   1180160     max3[0][0]                       
__________________________________________________________________________________________________
batch_normalization_5 (BatchNor (None, 32, 8, 512)   2048        conv5[0][0]                      
__________________________________________________________________________________________________
activation_5 (Activation)       (None, 32, 8, 512)   0           batch_normalization_5[0][0]      
__________________________________________________________________________________________________
conv6 (Conv2D)                  (None, 32, 8, 512)   2359808     activation_5[0][0]               
__________________________________________________________________________________________________
batch_normalization_6 (BatchNor (None, 32, 8, 512)   2048        conv6[0][0]                      
__________________________________________________________________________________________________
activation_6 (Activation)       (None, 32, 8, 512)   0           batch_normalization_6[0][0]      
__________________________________________________________________________________________________
max4 (MaxPooling2D)             (None, 32, 4, 512)   0           activation_6[0][0]               
__________________________________________________________________________________________________
con7 (Conv2D)                   (None, 32, 4, 512)   1049088     max4[0][0]                       
__________________________________________________________________________________________________
batch_normalization_7 (BatchNor (None, 32, 4, 512)   2048        con7[0][0]                       
__________________________________________________________________________________________________
activation_7 (Activation)       (None, 32, 4, 512)   0           batch_normalization_7[0][0]      
__________________________________________________________________________________________________
reshape (Reshape)               (None, 32, 2048)     0           activation_7[0][0]               
__________________________________________________________________________________________________
dense1 (Dense)                  (None, 32, 64)       131136      reshape[0][0]                    
__________________________________________________________________________________________________
lstm1 (CuDNNLSTM)               (None, 32, 256)      329728      dense1[0][0]                     
__________________________________________________________________________________________________
lstm1_b (CuDNNLSTM)             (None, 32, 256)      329728      dense1[0][0]                     
__________________________________________________________________________________________________
add_1 (Add)                     (None, 32, 256)      0           lstm1[0][0]                      
                                                                 lstm1_b[0][0]                    
__________________________________________________________________________________________________
batch_normalization_8 (BatchNor (None, 32, 256)      1024        add_1[0][0]                      
__________________________________________________________________________________________________
lstm2 (CuDNNLSTM)               (None, 32, 256)      526336      batch_normalization_8[0][0]      
__________________________________________________________________________________________________
lstm2_b (CuDNNLSTM)             (None, 32, 256)      526336      batch_normalization_8[0][0]      
__________________________________________________________________________________________________
concatenate_1 (Concatenate)     (None, 32, 512)      0           lstm2[0][0]                      
                                                                 lstm2_b[0][0]                    
__________________________________________________________________________________________________
dense2 (Dense)                  (None, 32, 42)       21546       concatenate_1[0][0]              
__________________________________________________________________________________________________
softmax (Activation)            (None, 32, 42)       0           dense2[0][0]                     
__________________________________________________________________________________________________
the_labels (InputLayer)         (None, 9)            0                                            
__________________________________________________________________________________________________
input_length (InputLayer)       (None, 1)            0                                            
__________________________________________________________________________________________________
label_length (InputLayer)       (None, 1)            0                                            
__________________________________________________________________________________________________
ctc (Lambda)                    (None, 1)            0           softmax[0][0]                    
                                                                 the_labels[0][0]                 
                                                                 input_length[0][0]               
                                                                 label_length[0][0]               
==================================================================================================
…
<span id="cb10-2">discriminator.summary()</span></code></pre></div>
<div class="cell-output cell-output-stdout">
<pre><code>WARNING:tensorflow:From /opt/conda/lib/python3.6/site-packages/tensorflow/python/ops/resource_variable_ops.py:435: colocate_with (from tensorflow.python.framework.ops) is deprecated and will be removed in a future version.
Instructions for updating:
Colocations handled automatically by placer.
_________________________________________________________________
Layer (type)                 Output Shape              Param #   
=================================================================
conv2d (Conv2D)              (None, 32, 32, 64)        4864      
_________________________________________________________________
leaky_re_lu (LeakyReLU)      (None, 32, 32, 64)        0         
_________________________________________________________________
conv2d_1 (Conv2D)            (None, 16, 16, 128)       204928    
_________________________________________________________________
batch_normalization_v1 (Batc (None, 16, 16, 128)       512       
_________________________________________________________________
leaky_re_lu_1 (LeakyReLU)    (None, 16, 16, 128)       0         
_________________________________________________________________
conv2d_2 (Conv2D)            (None, 8, 8, 256)         819456    
_________________________________________________________________
batch_normalization_v1_1 (Ba (None, 8, 8, 256)         1024      
_________________________________________________________________
leaky_re_lu_2 (LeakyReLU)    (None, 8, 8, 256)         0         
_________________________________________________________________
conv2d_3 (Conv2D)            (None, 4, 4, 512)         3277312   
_________________________________________________________________
batch_normalization_v1_2 (Ba (None, 4, 4, 512)         2048      
_________________________________________________________________
leaky_re_lu_3 (LeakyReLU)    (None, 4, 4, 512)         0         
_________________________________________________________________
flatten (Flatten)            (None, 8192)              0         
_________________________________________________________________
dense (Dense)                (None, 1)                 8193      
_________________________________________________________________
activation (Activation)      (None, 1)                 0         
=================================================================
Total params: 4,318,337
Trainable params: 4,316,545
Non-trainable params: 1,792
_________________________________________________________________</code></pre>
</div>
</div>
<div class="cell" data-execution_count="10">
<div class="sourceCode cell-code" id="cb12" style="background: #f1f3f5;"><pre class="sourceCode python code-with-copy"><code class="sourceCode python"><span id="cb12-1">SVG(model_to_dot(discriminator, show_shapes <span class="op" style="color: #5E5E5E;
…
background-color: null;
font-style: inherit;">1</span>:]), <span class="fl" style="color: #AD0000;
background-color: null;
font-style: inherit;">0.00015</span>, <span class="fl" style="color: #AD0000;
background-color: null;
font-style: inherit;">0.5</span>)</span>
<span id="cb13-2">generator.summary()</span></code></pre></div>
<div class="cell-output cell-output-stdout">
<pre><code>_________________________________________________________________
Layer (type)                 Output Shape              Param #   
=================================================================
dense_1 (Dense)              (None, 1, 1, 8192)        827392    
_________________________________________________________________
reshape (Reshape)            (None, 4, 4, 512)         0         
_________________________________________________________________
batch_normalization_v1_3 (Ba (None, 4, 4, 512)         2048      
_________________________________________________________________
activation_1 (Activation)    (None, 4, 4, 512)         0         
_________________________________________________________________
conv2d_transpose (Conv2DTran (None, 8, 8, 256)         3277056   
_________________________________________________________________
batch_normalization_v1_4 (Ba (None, 8, 8, 256)         1024      
_________________________________________________________________
activation_2 (Activation)    (None, 8, 8, 256)         0         
_________________________________________________________________
conv2d_transpose_1 (Conv2DTr (None, 16, 16, 128)       819328    
_________________________________________________________________
batch_normalization_v1_5 (Ba (None, 16, 16, 128)       512       
_________________________________________________________________
activation_3 (Activation)    (None, 16, 16, 128)       0         
_________________________________________________________________
conv2d_transpose_2 (Conv2DTr (None, 32, 32, 64)        204864    
_________________________________________________________________
batch_normalization_v1_6 (Ba (None, 32, 32, 64)        256       
_________________________________________________________________
activation_4 (Activation)    (None, 32, 32, 64)        0         
_________________________________________________________________
conv2d_transpose_3 (Conv2DTr (None, 64, 64, 3)         4803      
_________________________________________________________________
activation_5 (Activation)    (None, 64, 64, 3)         0         
=================================================================
Total params: 5,137,283
Trainable params: 5,135,363
Non-trainable params: 1,920
_________________________________________________________________</code></pre>
</div>
</div>
<div class="cell" data-execution_count="12">
<div class="sourceCode cell-code" id="cb15" style="background: #f1f3f5;"><pre class="sourceCode python code-with-copy"><code class="sourceCode python"><span id="cb15-1">SVG(model_to_dot(generator, show_shapes <span class="op" style="color: #5E5E5E;
…
<div class="sourceCode cell-code" id="cb13" style="background: #f1f3f5;"><pre class="sourceCode python code-with-copy"><code class="sourceCode python"><span id="cb13-1">generator <span class="op" style="color: #5E5E5E;
background-color: null;
font-style: inherit;">=</span> build_generator(LATENT_DIMENSION, optimizer)</span>
<span id="cb13-2">generator.summary()</span></code></pre></div>
<div class="cell-output cell-output-stdout">
<pre><code>_________________________________________________________________
Layer (type)                 Output Shape              Param #   
=================================================================
dense (Dense)                (None, 256)               25856     
_________________________________________________________________
dense_1 (Dense)              (None, 6272)              1611904   
_________________________________________________________________
batch_normalization_v1 (Batc (None, 6272)              25088     
_________________________________________________________________
activation (Activation)      (None, 6272)              0         
_________________________________________________________________
reshape (Reshape)            (None, 7, 7, 128)         0         
_________________________________________________________________
up_sampling2d (UpSampling2D) (None, 14, 14, 128)       0         
_________________________________________________________________
conv2d (Conv2D)              (None, 14, 14, 64)        204864    
_________________________________________________________________
up_sampling2d_1 (UpSampling2 (None, 28, 28, 64)        0         
_________________________________________________________________
conv2d_1 (Conv2D)            (None, 28, 28, 1)         1601      
=================================================================
Total params: 1,869,313
Trainable params: 1,856,769
Non-trainable params: 12,544
_________________________________________________________________</code></pre>
</div>
</div>
<div class="cell" data-execution_count="11">
<div class="sourceCode cell-code" id="cb15" style="background: #f1f3f5;"><pre class="sourceCode python code-with-copy"><code class="sourceCode python"><span id="cb15-1">SVG(model_to_dot(generator, show_shapes <span class="op" style="color: #5E5E5E;
…
<div class="sourceCode cell-code" id="cb16" style="background: #f1f3f5;"><pre class="sourceCode python code-with-copy"><code class="sourceCode python"><span id="cb16-1">discriminator <span class="op" style="color: #5E5E5E;
background-color: null;
font-style: inherit;">=</span> build_discriminator(IMAGE_SHAPE, optimizer)</span>
<span id="cb16-2">discriminator.summary()</span></code></pre></div>
<div class="cell-output cell-output-stdout">
<pre><code>_________________________________________________________________
Layer (type)                 Output Shape              Param #   
=================================================================
conv2d_2 (Conv2D)            (None, 28, 28, 64)        1664      
_________________________________________________________________
max_pooling2d (MaxPooling2D) (None, 14, 14, 64)        0         
_________________________________________________________________
conv2d_3 (Conv2D)            (None, 10, 10, 128)       204928    
_________________________________________________________________
max_pooling2d_1 (MaxPooling2 (None, 5, 5, 128)         0         
_________________________________________________________________
flatten (Flatten)            (None, 3200)              0         
_________________________________________________________________
dense_2 (Dense)              (None, 1024)              3277824   
_________________________________________________________________
dense_3 (Dense)              (None, 1)                 1025      
=================================================================
Total params: 3,485,441
Trainable params: 3,485,441
Non-trainable params: 0
_________________________________________________________________</code></pre>
</div>
</div>
<div class="cell" data-execution_count="13">
<div class="sourceCode cell-code" id="cb18" style="background: #f1f3f5;"><pre class="sourceCode python code-with-copy"><code class="sourceCode python"><span id="cb18-1">SVG(model_to_dot(discriminator, show_shapes <span class="op" style="color: #5E5E5E;
…
<div class="sourceCode cell-code" id="cb13" style="background: #f1f3f5;"><pre class="sourceCode python code-with-copy"><code class="sourceCode python"><span id="cb13-1">generator <span class="op" style="color: #5E5E5E;
background-color: null;
font-style: inherit;">=</span> build_generator(LATENT_DIMENSION, IMAGE_SHAPE, optimizer)</span>
<span id="cb13-2">generator.summary()</span></code></pre></div>
<div class="cell-output cell-output-stdout">
<pre><code>_________________________________________________________________
Layer (type)                 Output Shape              Param #   
=================================================================
dense (Dense)                (None, 256)               25856     
_________________________________________________________________
leaky_re_lu (LeakyReLU)      (None, 256)               0         
_________________________________________________________________
dense_1 (Dense)              (None, 512)               131584    
_________________________________________________________________
leaky_re_lu_1 (LeakyReLU)    (None, 512)               0         
_________________________________________________________________
dense_2 (Dense)              (None, 1024)              525312    
_________________________________________________________________
leaky_re_lu_2 (LeakyReLU)    (None, 1024)              0         
_________________________________________________________________
dense_3 (Dense)              (None, 784)               803600    
=================================================================
Total params: 1,486,352
Trainable params: 1,486,352
Non-trainable params: 0
_________________________________________________________________</code></pre>
</div>
</div>
<div class="cell" data-execution_count="11">
<div class="sourceCode cell-code" id="cb15" style="background: #f1f3f5;"><pre class="sourceCode python code-with-copy"><code class="sourceCode python"><span id="cb15-1">SVG(model_to_dot(generator, show_shapes <span class="op" style="color: #5E5E5E;
…
<div class="cell-output cell-output-stdout">
<pre><code>WARNING:tensorflow:From /opt/conda/lib/python3.6/site-packages/tensorflow/python/keras/layers/core.py:143: calling dropout (from tensorflow.python.ops.nn_ops) with keep_prob is deprecated and will be removed in a future version.
Instructions for updating:
Please use `rate` instead of `keep_prob`. Rate should be set to `rate = 1 - keep_prob`.
_________________________________________________________________
Layer (type)                 Output Shape              Param #   
=================================================================
dense_4 (Dense)              (None, 1024)              803840    
_________________________________________________________________
leaky_re_lu_3 (LeakyReLU)    (None, 1024)              0         
_________________________________________________________________
dropout (Dropout)            (None, 1024)              0         
_________________________________________________________________
dense_5 (Dense)              (None, 512)               524800    
_________________________________________________________________
leaky_re_lu_4 (LeakyReLU)    (None, 512)               0         
_________________________________________________________________
dropout_1 (Dropout)          (None, 512)               0         
_________________________________________________________________
dense_6 (Dense)              (None, 256)               131328    
_________________________________________________________________
leaky_re_lu_5 (LeakyReLU)    (None, 256)               0         
_________________________________________________________________
dense_7 (Dense)              (None, 1)                 257       
=================================================================
Total params: 1,460,225
Trainable params: 1,460,225
Non-trainable params: 0
_________________________________________________________________</code></pre>
</div>
</div>
<div class="cell" data-execution_count="13">
<div class="sourceCode cell-code" id="cb18" style="background: #f1f3f5;"><pre class="sourceCode python code-with-copy"><code class="sourceCode python"><span id="cb18-1">SVG(model_to_dot(discriminator, show_shapes <span class="op" style="color: #5E5E5E;
…
