…
low:From /opt/conda/lib/python3.6/site-packages/tensorflow/python/ops/resource_variable_ops.py:435: colocate_with (from tensorflow.python.framework.ops) is deprecated and will be removed in a future version.\nInstructions for updating:\nColocations handled automatically by placer.\n\n\n\ngenerator = build_generator(LATENT_DIMENSION, optimizer)\ngenerator.summary()\n\n_________________________________________________________________\nLayer (type)                 Output Shape              Param #   \n=================================================================\ndense (Dense)                (None, 256)               25856     \n_________________________________________________________________\ndense_1 (Dense)              (None, 6272)              1611904   \n_________________________________________________________________\nbatch_normalization_v1 (Batc (None, 6272)              25088     \n_________________________________________________________________\nactivation (Activation)      (None, 6272)              0         \n_________________________________________________________________\nreshape (Reshape)            (None, 7, 7, 128)         0         \n_________________________________________________________________\nup_sampling2d (UpSampling2D) (None, 14, 14, 128)       0         \n_________________________________________________________________\nconv2d (Conv2D)              (None, 14, 14, 64)        204864    \n_________________________________________________________________\nup_sampling2d_1 (UpSampling2 (None, 28, 28, 64)        0         \n_________________________________________________________________\nconv2d_1 (Conv2D)            (None, 28, 28, 1)         1601      \n=================================================================\nTotal params: 1,869,313\nTrainable params: 1,856,769\nNon-trainable params: 12,544\n_________________________________________________________________\n\n\n\nSVG(model_to_dot(generator, show_shapes = True, show_layer_names = True).create(prog = 'dot', format = 'svg'))\n\n\n\n\n\n\n\n\n\ndiscriminator = build_discriminator(IMAGE_SHAPE, optimizer)\ndiscriminator.summary()\n\n_________________________________________________________________\nLayer (type)                 Output Shape              Param #   \n=================================================================\nconv2d_2 (Conv2D)            (None, 28, 28, 64)        1664      \n_________________________________________________________________\nmax_pooling2d (MaxPooling2D) (None, 14, 14, 64)        0         \n_________________________________________________________________\nconv2d_3 (Conv2D)            (None, 10, 10, 128)       204928    \n_________________________________________________________________\nmax_pooling2d_1 (MaxPooling2 (None, 5, 5, 128)         0         \n_________________________________________________________________\nflatten (Flatten)            (None, 3200)              0         \n_________________________________________________________________\ndense_2 (Dense)              (None, 1024)              3277824   \n_________________________________________________________________\ndense_3 (Dense)              (None, 1)                 1025      \n=================================================================\nTotal params: 3,485,441\nTrainable params: 3,485,441\nNon-trainable params: 0\n_________________________________________________________________\n\n\n\nSVG(model_to_dot(discriminator, show_shapes = True, show_layer_names = True).create(prog = 'dot', format = 'svg'))\n\n\n\n\n\n\n\n\n\ngan = build_gan(generator, discriminator, LATENT_DIMENSION, optimizer)\ngan.summary()\n\n_________________________________________________________________\nLayer (type)                 Output Shape              Param #   \n=================================================================\ninput_1 (InputLayer)         (None, 100)               0         \n_________________________________________________________________\nsequential (Sequential)      (None, 28, 28, 1)         1869313   \n_________________________________________________________________\nsequential_1 (Sequential)    (None, 1)                 3485441   \n=================================================================\nTotal params: 5,354,754\nTrainable params: 1,856,769\nNon-trainable params: 3,497,985\n_________________________________________________________________\n\n\n\nSVG(model_to_dot(gan, show_shapes = True, show_layer_names = True).create(prog = 'dot', format = 'svg'))\n\n\n\n\n\n\n\n\n\ndef plot_images(nrows, ncols, figsize, gener
…
ops.py:1354: add_dispatch_support.&lt;locals&gt;.wrapper (from tensorflow.python.ops.array_ops) is deprecated and will be removed in a future version.\nInstructions for updating:\nUse tf.where in 2.0, which has the same broadcast rule as np.where\nModel: \"model_1\"\n__________________________________________________________________________________________________\nLayer (type)                    Output Shape         Param #     Connected to                     \n==================================================================================================\nthe_input (InputLayer)          (None, 128, 64, 1)   0                                            \n__________________________________________________________________________________________________\nconv1 (Conv2D)                  (None, 128, 64, 64)  640         the_input[0][0]                  \n__________________________________________________________________________________________________\nbatch_normalization_1 (BatchNor (None, 128, 64, 64)  256         conv1[0][0]                      \n__________________________________________________________________________________________________\nactivation_1 (Activation)       (None, 128, 64, 64)  0           batch_normalization_1[0][0]      \n__________________________________________________________________________________________________\nmax1 (MaxPooling2D)             (None, 64, 32, 64)   0           activation_1[0][0]               \n__________________________________________________________________________________________________\nconv2 (Conv2D)                  (None, 64, 32, 128)  73856       max1[0][0]                       \n__________________________________________________________________________________________________\nbatch_normalization_2 (BatchNor (None, 64, 32, 128)  512         conv2[0][0]                      \n__________________________________________________________________________________________________\nactivation_2 (Activation)       (None, 64, 32, 128)  0           batch_normalization_2[0][0]      \n__________________________________________________________________________________________________\nmax2 (MaxPooling2D)             (None, 32, 16, 128)  0           activation_2[0][0]               \n__________________________________________________________________________________________________\nconv3 (Conv2D)                  (None, 32, 16, 256)  295168      max2[0][0]                       \n__________________________________________________________________________________________________\nbatch_normalization_3 (BatchNor (None, 32, 16, 256)  1024        conv3[0][0]                      \n__________________________________________________________________________________________________\nactivation_3 (Activation)       (None, 32, 16, 256)  0           batch_normalization_3[0][0]      \n__________________________________________________________________________________________________\nconv4 (Conv2D)                  (None, 32, 16, 256)  590080      activation_3[0][0]               \n__________________________________________________________________________________________________\nbatch_normalization_4 (BatchNor (None, 32, 16, 256)  1024        conv4[0][0]                      \n__________________________________________________________________________________________________\nactivation_4 (Activation)       (None, 32, 16, 256)  0           batch_normalization_4[0][0]      \n__________________________________________________________________________________________________\nmax3 (MaxPooling2D)             (None, 32, 8, 256)   0           activation_4[0][0]               \n__________________________________________________________________________________________________\nconv5 (Conv2D)                  (None, 32, 8, 512)   1180160     max3[0][0]                       \n__________________________________________________________________________________________________\nbatch_normalization_5 (BatchNor (None, 32, 8, 512)   2048        conv5[0][0]                      \n__________________________________________________________________________________________________\nactivation_5 (Activation)       (None, 32, 8, 512)   0           batch_normalization_5[0][0]      \n__________________________________________________________________________________________________\nconv6 (Conv2D)                  (None, 32, 8, 512)   2359808     activation_5[0][0]               \n__________________________________________________________________________________________________\nbatch_normalization_6 (BatchNor (None, 32, 8, 512)   2048        conv6[0][0]                      \n__________________________________________________________________________________________________\nactivation_6 (Activation)       (None, 32, 8, 512)   0           batch_normalization_6[0][0]      \n__________________________________________________________________________________________________\nmax4 (MaxPooling2D)             (None, 32, 4, 512)   0           activation_6[0][0]               \n__________________________________________________________________________________________________\ncon7 (Conv2D)                   (None, 32, 4, 512)   1049088     max4[0][0]                       \n__________________________________________________________________________________________________\nbatch_normalization_7 (BatchNor (None, 32, 4, 512)   2048        con7[0][0]                       \n__________________________________________________________________________________________________\nactivation_7 (Activation)       (None, 32, 4, 512)   0           batch_normalization_7[0][0]      \n__________________________________________________________________________________________________\nreshape (Reshape)               (None, 32, 2048)     0           activation_7[0][0]               \n__________________________________________________________________________________________________\ndense1 (Dense)                  (None, 32, 64)       131136      reshape[0][0]                    \n__________________________________________________________________________________________________\nlstm1 (CuDNNLSTM)               (None, 32, 256)      329728      dense1[0][0]                     \n__________________________________________________________________________________________________\nlstm1_b (CuDNNLSTM)             (None, 32, 256)      329728      dense1[0][0]                     \n__________________________________________________________________________________________________\nadd_1 (Add)                     (None, 32, 256)      0           lstm1[0][0]                      \n                                                                 lstm1_b[0][0]                    \n__________________________________________________________________________________________________\nbatch_normalization_8 (BatchNor (None, 32, 256)      1024        add_1[0][0]                      \n__________________________________________________________________________________________________\nlstm2 (CuDNNLSTM)               (None, 32, 256)      526336      batch_normalization_8[0][0]      \n__________________________________________________________________________________________________\nlstm2_b (CuDNNLSTM)             (None, 32, 256)      526336      batch_normalization_8[0][0]      \n__________________________________________________________________________________________________\nconcatenate_1 (Concatenate)     (None, 32, 512)      0           lstm2[0][0]                      \n                                                                 lstm2_b[0][0]                    \n__________________________________________________________________________________________________\ndense2 (Dense)                  (None, 32, 42)       21546       concatenate_1[0][0]              \n__________________________________________________________________________________________________\nsoftmax (Activation)            (None, 32, 42)       0           dense2[0][0]                     \n__________________________________________________________________________________________________\nthe_labels (InputLayer)         (None, 9)            0                                            \n__________________________________________________________________________________________________\ninput_length (InputLayer)       (None, 1)            0                                            \n__________________________________________________________________________________________________\nlabel_length (InputLayer)       (None, 1)            0                                            \n__________________________________________________________________________________________________\nctc (Lambda)                    (None, 1)            0           softmax[0][0]                    \n                                                                 the_labels[0][0]                 \n                                                                 input_length[0][0]               \n                                                                 label_length[0][0]               \n======================================================
…
ild_discriminator((64, 64, 3), 0.0002, 0.5)\ndiscriminator.summary()\n\nWARNING:tensorflow:From /opt/conda/lib/python3.6/site-packages/tensorflow/python/ops/resource_variable_ops.py:435: colocate_with (from tensorflow.python.framework.ops) is deprecated and will be removed in a future version.\nInstructions for updating:\nColocations handled automatically by placer.\n_________________________________________________________________\nLayer (type)                 Output Shape              Param #   \n=================================================================\nconv2d (Conv2D)              (None, 32, 32, 64)        4864      \n_________________________________________________________________\nleaky_re_lu (LeakyReLU)      (None, 32, 32, 64)        0         \n_________________________________________________________________\nconv2d_1 (Conv2D)            (None, 16, 16, 128)       204928    \n_________________________________________________________________\nbatch_normalization_v1 (Batc (None, 16, 16, 128)       512       \n_________________________________________________________________\nleaky_re_lu_1 (LeakyReLU)    (None, 16, 16, 128)       0         \n_________________________________________________________________\nconv2d_2 (Conv2D)            (None, 8, 8, 256)         819456    \n_________________________________________________________________\nbatch_normalization_v1_1 (Ba (None, 8, 8, 256)         1024      \n_________________________________________________________________\nleaky_re_lu_2 (LeakyReLU)    (None, 8, 8, 256)         0         \n_________________________________________________________________\nconv2d_3 (Conv2D)            (None, 4, 4, 512)         3277312   \n_________________________________________________________________\nbatch_normalization_v1_2 (Ba (None, 4, 4, 512)         2048      \n_________________________________________________________________\nleaky_re_lu_3 (LeakyReLU)    (None, 4, 4, 512)         0         \n_________________________________________________________________\nflatten (Flatten)            (None, 8192)              0         \n_________________________________________________________________\ndense (Dense)                (None, 1)                 8193      \n_________________________________________________________________\nactivation (Activation)      (None, 1)                 0         \n=================================================================\nTotal params: 4,318,337\nTrainable params: 4,316,545\nNon-trainable params: 1,792\n_________________________________________________________________\n\n\n\nSVG(model_to_dot(discriminator, show_shapes = True, show_layer_names = True).create(prog = 'dot', format = 'svg'))\n\n\n\n\n\n\n\n\n\ngenerator = build_generator(np.prod(discriminator.layers[-4].output_shape[1:]), 0.00015, 0.5)\ngenerator.summary()\n\n_________________________________________________________________\nLayer (type)                 Output Shape              Param #   \n=================================================================\ndense_1 (Dense)              (None, 1, 1, 8192)        827392    \n_________________________________________________________________\nreshape (Reshape)            (None, 4, 4, 512)         0         \n_________________________________________________________________\nbatch_normalization_v1_3 (Ba (None, 4, 4, 512)         2048      \n_________________________________________________________________\nactivation_1 (Activation)    (None, 4, 4, 512)         0         \n_________________________________________________________________\nconv2d_transpose (Conv2DTran (None, 8, 8, 256)         3277056   \n_________________________________________________________________\nbatch_normalization_v1_4 (Ba (None, 8, 8, 256)         1024      \n_________________________________________________________________\nactivation_2 (Activation)    (None, 8, 8, 256)         0         \n_________________________________________________________________\nconv2d_transpose_1 (Conv2DTr (None, 16, 16, 128)       819328    \n_________________________________________________________________\nbatch_normalization_v1_5 (Ba (None, 16, 16, 128)       512       \n_________________________________________________________________\nactivation_3 (Activation)    (None, 16, 16, 128)       0         \n_________________________________________________________________\nconv2d_transpose_2 (Conv2DTr (None, 32, 32, 64)        204864    \n_________________________________________________________________\nbatch_normalization_v1_6 (Ba (None, 32, 32, 64)        256       \n_________________________________________________________________\nactivation_4 (Activation)    (None, 32, 32, 64)        0         \n_________________________________________________________________\nconv2d_transpose_3 (Conv2DTr (None, 64, 64, 3)         4803      \n_________________________________________________________________\nactivation_5 (Activation)    (None, 64, 64, 3)         0         \n=================================================================\nTotal params: 5,137,283\nTrainable params: 5,135,363\nNon-trainable params: 1,920\n_________________________________________________________________\n\n\n\nSVG(model_to_dot(generator, show_shapes = True, show_layer_names = True).create(prog = 'dot', format = 'svg'))\n\n\n\n\n\n\n\n\n\ndiscriminator.trainable = False\ngan = build_gan(generator, discriminator, 0.00015, 0.5)\ngan.summary()\n\n_________________________________________________________________\nLayer (type)                 Output Shape              Param #   \n=================================================================\nGenerator (Sequential)       (None, 64, 64, 3)         5137283   \n_________________________________________________________________\nDiscriminator (Sequential)   (None, 1)                 4318337   \n=================================================================\nTotal params: 9,455,620\nTrainable params: 5,135,363\nNon-trainable params: 4,320,257\n_________________________________________________________________\n\n\n\nSVG(model_to_dot(gan, show_shapes = True, show_layer_names = True).create(prog = 'dot', format = 'svg'))\n\n\n\n\n\n\n\n\n\nEPOCHS = 15000\nBATCH_SIZE = 32\n\n\ndef plo
…
/conda/lib/python3.6/site-packages/tensorflow/python/ops/resource_variable_ops.py:435: colocate_with (from tensorflow.python.framework.ops) is deprecated and will be removed in a future version.\nInstructions for updating:\nColocations handled automatically by placer.\n\n\n\ngenerator = build_generator(LATENT_DIMENSION, IMAGE_SHAPE, optimizer)\ngenerator.summary()\n\n_________________________________________________________________\nLayer (type)                 Output Shape              Param #   \n=================================================================\ndense (Dense)                (None, 256)               25856     \n_________________________________________________________________\nleaky_re_lu (LeakyReLU)      (None, 256)               0         \n_________________________________________________________________\ndense_1 (Dense)              (None, 512)               131584    \n_________________________________________________________________\nleaky_re_lu_1 (LeakyReLU)    (None, 512)               0         \n_________________________________________________________________\ndense_2 (Dense)              (None, 1024)              525312    \n_________________________________________________________________\nleaky_re_lu_2 (LeakyReLU)    (None, 1024)              0         \n_________________________________________________________________\ndense_3 (Dense)              (None, 784)               803600    \n=================================================================\nTotal params: 1,486,352\nTrainable params: 1,486,352\nNon-trainable params: 0\n_________________________________________________________________\n\n\n\nSVG(model_to_dot(generator, show_shapes = True, show_layer_names = True).create(prog = 'dot', format = 'svg'))\n\n\n\n\n\n\n\n\n\ndiscriminator = build_discriminator(IMAGE_SHA
…
riminator.summary()\n\nWARNING:tensorflow:From /opt/conda/lib/python3.6/site-packages/tensorflow/python/keras/layers/core.py:143: calling dropout (from tensorflow.python.ops.nn_ops) with keep_prob is deprecated and will be removed in a future version.\nInstructions for updating:\nPlease use `rate` instead of `keep_prob`. Rate should be set to `rate = 1 - keep_prob`.\n_________________________________________________________________\nLayer (type)                 Output Shape              Param #   \n=================================================================\ndense_4 (Dense)              (None, 1024)              803840    \n_________________________________________________________________\nleaky_re_lu_3 (LeakyReLU)    (None, 1024)              0         \n_________________________________________________________________\ndropout (Dropout)            (None, 1024)              0         \n_________________________________________________________________\ndense_5 (Dense)              (None, 512)               524800    \n_________________________________________________________________\nleaky_re_lu_4 (LeakyReLU)    (None, 512)               0         \n_________________________________________________________________\ndropout_1 (Dropout)          (None, 512)               0         \n_________________________________________________________________\ndense_6 (Dense)              (None, 256)               131328    \n_________________________________________________________________\nleaky_re_lu_5 (LeakyReLU)    (None, 256)               0         \n_________________________________________________________________\ndense_7 (Dense)              (None, 1)                 257       \n=================================================================\nTotal params: 1,460,225\nTrainable params: 1,460,225\nNon-trainable params: 0\n_________________________________________________________________\n\n\n\nSVG(model_to_dot(discriminator, show_shapes = True, show_layer_names = True).create(prog = 'dot', format = 'svg'))\n\n\n\n\n\n\n\n\n\ngan = build_gan(generator, discriminator, LATENT_DIMENSION, optimizer)\ngan.summary()\n\n_________________________________________________________________\nLayer (type)                 Output Shape              Param #   \n=================================================================\ninput_1 (InputLayer)         (None, 100)               0         \n_________________________________________________________________\nGenerator (Sequential)       (None, 784)               1486352   \n_________________________________________________________________\nDiscriminator (Sequential)   (None, 1)                 1460225   \n=================================================================\nTotal params: 2,946,577\nTrainable params: 1,486,352\nNon-trainable params: 1,460,225\n_________________________________________________________________\n\n\n\nSVG(model_to_dot(gan, show_shapes = True, show_layer_names = True).create(prog = 'dot', format = 'svg'))\n\n\n\n\n\n\n\n\n\ndef plot_images(nrows, ncols, figsize, gener
…
